backend/best_model.pth (torch, 60514 bytes, 19 tensors)

network.0.weight f4 [128, 14]
00000000: 9e55 5a3e 65ad 563e d5dd 5abd bc11 843e
00000010: 9744 5ebd ee33 783d 359b fcbd 1169 1b3e
00000020: 537e 693e 5c3b 39be 3a64 793e c243 803d
00000030: 3c6b 533e 4f9e 283d 173d 423e 7c12 36bd
00000040: 4074 6e3e 0513 e43c fa52 e3bd 8292 8b3d
00000050: c27a dbbd e3a4 54bc 9fd3 c3bd 87ee 323e
00000060: 8362 57be 3090 febd 1dbd 76bd ec93 0abe
00000070: 4eb6 95bb 6ef2 8dbe 04e3 573e 4c08 6ebe
00000080: 887c 433e b14e 073d 19b7 ccbd c092 2f3e
00000090: 84c9 3c3d ec27 6e3e d20d 843c 6088 c3bd
000000a0: 41f0 793d deae 91bd b5f3 f13d 9045 663e
000000b0: 9e8f 2c3e a2ce d6bd 1ab3 1b3e d32b bb3c
000000c0: ad31 e93d fb3e 26be a823 92be 7687 fbbd
000000d0: 1da2 41be a42f 703e 17b7 963d beb3 bb3d
000000e0: 4c9d 7d3d f682 9abc 399c 523e 0dfd 47be
000000f0: bb07 563c 3c0d 53be c4c6 883d 00fc b7bd
00000100: 44b0 b43d 1386 87bd 5a08 553e 51cf 25be
00000110: fb99 08be bfac 1cbe 615c 6a3e 7eae 9e3d
00000120: 3ae4 7d3e ab78 4dbe fed7 8dbe 500a 59be
00000130: 55ae 46be e39d 023e 94e5 cb3d db00 643e
00000140: b7ea 11be 8ae0 22be 3574 1a3e d049 e9bd
00000150: f2ba 2e3e 4798 48bd e1b5 2d3e e5b8 45be
00000160: 9156 03be b5ad c93d 64e3 843d bfd2 68bd
00000170: d13e 313e 4fce 3e3e d82c 3fbe 1e12 05be
00000180: f657 713e bed4 dcbd 4b28 febd ef4c 81be
00000190: 4e32 26be 72b7 1d3d 6f3c 34bd 17aa 4bbe
000001a0: 4351 3dbc c8b0 3abe 37cd 53be 6cc0 04be
000001b0: 19bb 85be 954d 4abe b4e2 913e 4801 4f3d
000001c0: 8adc ca3c b797 84be b105 5cbe 103e a6bd
000001d0: 7951 ce3c cc5b 80be b26d 14be 5391 18be
000001e0: df2c 203b 32cd a1bd b17e 8bbc f5f4 35be
000001f0: bb09 2fbe 8368 13be 6501 0cbe edbc 57be
00000200: 9b72 513e 05ae 6cbd 4948 603e e0f8 8f3d
00000210: 365c 7cbe df31 3a3e 59f7 b4bd f414 c2bd
00000220: 74d0 69be d7c8 8dbe fdbb e43d ac95 1bbd
00000230: 7035 1e3e 31f5 5abe 1fd7 6a3e bb25 28be
00000240: c305 15bd a7e7 6b3d 218d 1d3e 63fc 683e
00000250: d8b4 7b3e b2bd 5ebe 3c93 9c3d 6987 a1bd
00000260: 6e48 86bd 1104 65be a0af 8e3e 81d2 4fbe
00000270: f926 293e 493e be3d 03bf 833d 9a28 21be
00000280: 163a 623e 0f8f 813d b3bf 9a3c 4158 7ebe
00000290: e7bc a83d 0fd7 1fbd f729 0bbe 05c2 723e
000002a0: 1f72 333d 7e14 1cbe 9cf7 13be 21e2 99bc
000002b0: 2a38 0f3e c444 a9bd 1610 26be 864a cabd
000002c0: 4369 54be e094 a13d a724 4a3e 84d9 83be
000002d0: 9483 733d 7e40 063e 740d 813d 51a8 07be
000002e0: 39a8 fd3d b76e cd3d 7c72 843d 38fb 8abd
000002f0: 9556 bebd 23f4 063d f2a6 26bd 9abe fdbd
00000300: bdbe 083e e9c6 543e d567 67bd b0e6 8cbd
00000310: dbcf 0fbd bd74 353b b3ba 4d3d 7a62 9a3d
00000320: ddf9 76be a565 93bd 2ba2 703e 0bb9 c93d
00000330: 3482 36bc 6b5a 3ebe 7f83 22be 1052 78be
00000340: 46f8 82bd 9698 993d 88da 113e faae 073e
00000350: 648c 7cbe 17e0 29be 034e 25bd 22d9 7a3e
00000360: f0da 133d fc9b 6ebd 89dd 063e fb36 d3bd
00000370: 2ddb 2abe 8fc3 433e 3dd3 f0bd 8fbc 58bd
00000380: 4972 7dbe 00b9 4b3e f79c 5c3e 62ec 0c3e
00000390: 4397 24be a795 83be f4e7 48be b624 573e
000003a0: 1246 e83d ae47 553e d761 233e 4001 de3d
000003b0: a136 04bc a9f2 5ebe f263 85be a5db 85be
000003c0: e67c a13d 3e06 1ebe 81bc 69bd aa8f 3cbe
000003d0: e860 89bd 029c 2abe 90c4 1abe a51b ce3d
000003e0: 230a 9dbd 6279 0e3e f45b d0bd f6c7 59be
000003f0: 0e9e adbd 8022 1cbe 307e eabd 48e1 78be
0.21321723 0.20964582 -0.05343421 0.2579478 -0.05426463 0.0605964 -0.12334291 0.15176798
0.22802095 -0.1808905 0.2435464 0.06262924 0.20646375 0.0411666 0.18968616 -0.04445122
0.23286533 0.0278411 -0.11099811 0.068150535 -0.107167736 -0.012978765 -0.09561848 0.17473803
-0.21033673 -0.12429845 -0.060238946 -0.1353299 -0.0045688516 -0.27724022 0.21082693 -0.23245353
0.19090474 0.03303403 -0.099958606 0.17145824 0.046090618 0.23257416 0.016119871 -0.09547496
0.06102014 -0.071134314 0.118140616 0.22487473 0.1685166 -0.10488631 0.1520504 0.022848045
0.11386428 -0.16234963 -0.2854283 -0.122816965 -0.18909498 0.23455673 0.0735914 0.091651425
0.061917588 -0.018861275 0.20567407 -0.19530125 0.0130633665 -0.20610517 0.066785365 -0.08983612
0.088226825 -0.066173695 0.20803967 -0.16192366 -0.13339989 -0.15300272 0.22886802 0.077481255
0.24794093 -0.20065562 -0.2770385 -0.2119534 -0.1940244 0.12755542 0.09955898 0.22265951
-0.14249693 -0.15905967 0.15083392 -0.11391032 0.17063501 -0.048973348 0.16963913 -0.19308813
-0.12825991 0.09847585 0.06488684 -0.056841608 0.17309119 0.18633388 -0.1866945 -0.12995192
0.2356871 -0.10782765 -0.12410029 -0.25254008 -0.16230127 0.038505025 -0.044002946 -0.19889103
-0.011555019 -0.18231499 -0.20683752 -0.12964028 -0.26119307 -0.19756158 0.28493273 0.05053833
0.024763364 -0.25897 -0.21486546 -0.08117306 0.025185334 -0.25070035 -0.1449497 -0.14899187
0.0024440808 -0.07900466 -0.017028185 -0.17769225 -0.17093556 -0.14395337 -0.13672407 -0.21068163
0.20453875 -0.057783145 0.21902575 0.07029891 -0.2464455 0.18183087 -0.0883624 -0.09476653
-0.22833425 -0.2769229 0.111686684 -0.037984535 0.15450072 -0.21382596 0.22933625 -0.16420643
-0.036382448 0.057593968 0.15385868 0.22752528 0.24580705 -0.2175205 0.0764527 -0.078871556
-0.065567836 -0.22364832 0.27868366 -0.20295145 0.16518773 0.09289224 0.06432917 -0.15738145
0.2209247 0.063261144 0.018890237 -0.24838354 0.08239155 -0.039023455 -0.13590227 0.23706825
0.043810006 -0.15242192 -0.14449924 -0.018784584 0.13986269 -0.08265069 -0.16217074 -0.098774955
-0.20743279 0.07889724 0.19740544 -0.2575189 0.059451655 0.1311054 0.06301394 -0.13247801
0.123856016 0.10030883 0.06467149 -0.067861974 -0.09293858 0.03294767 -0.040686555 -0.1238987
0.13354011 0.20779003 -0.056495506 -0.06879938 -0.035110336 0.002768799 0.05022688 0.07538314
-0.24118753 -0.071971215 0.23499362 0.09849747 -0.011139441 -0.18589179 -0.15870474 -0.24250054
-0.06395011 0.074998066 0.1424352 0.13250342 -0.2466293 -0.1658939 -0.0403576 0.24496892
0.036097467 -0.058254227 0.13170446 -0.10313221 -0.16685171 0.19117568 -0.117590405 -0.0529142
-0.24750628 0.1989479 0.21544252 0.13762048 -0.16073327 -0.25700113 -0.19619733 0.21010098
0.1134149 0.20828125 0.15955292 0.10840082 -0.008069665 -0.21772255 -0.26052815 -0.26144138
0.078851506 -0.15432069 -0.057064537 -0.18414178 -0.067079365 -0.16661075 -0.15114045 0.100638665
-0.07667949 0.13913491 -0.10173789 -0.21267685 -0.08477412 -0.15247536 -0.114498496 -0.24304688

network.0.bias f4 [128]
00000000: 6f34 73be ab5b 873e a1b8 09bd d520 0cbe
00000010: 3b81 8dbd a4f9 57be 71a6 513e f2ee 2fbd
00000020: cfc5 11be fd00 3bbe 007f e23d e967 25bd
00000030: e4bc c8bc 00d8 80bd 7760 fbbd 76de 663d
00000040: 277e 5a3e 4eb5 43be 3b48 f03c 1176 3cbe
00000050: 64eb 00be 0b49 5e3e 741c ec3b 8046 873e
00000060: a0bb 4bbd 9eaf 17be c605 28be 4809 6f3e
00000070: 1409 7ebe 896c 183e 672a 8e3d 5411 873d
00000080: adad 0e3e b561 adbd 2f65 133e 134f 63be
00000090: 23aa a1bd d19f 413e 00d7 a23d 4a3b f039
000000a0: 74dd 5dbd 28b0 24be 1f5d 213e 7e0d 68bc
000000b0: fdac e03c 40ea 893d f9a6 3b3e bff1 0ebe
000000c0: f28d bdbd 3a34 2a3e db27 263e 6c34 1bbe
000000d0: 19b1 97be 1a6c 103d 30fc 173e 9538 773d
000000e0: e583 4e3e 4e81 60be 4cac f73d 9474 35be
000000f0: 5a3a 193e 2a4c 313e 37b7 bd3d 7d42 5f3e
00000100: c27a 25be a717 81be 2ba2 91be 64f9 253e
00000110: c958 bb3d 091b 2fbe d48d 0b3e 923f 683e
00000120: c973 81be 4d9d 533e 3056 843d 22ad c83c
00000130: 4b39 6c3e 565d 7d3e 9ace fb3d c6ff 5d3e
00000140: f6de 053e 45c9 bb3c 6051 77be 74b7 683d
00000150: 0585 40be f5b2 963d 4b69 153d f77e e13c
00000160: 0bc0 42be bf81 33be 93b8 3f3e 200b 063e
00000170: 1da9 0e3e ccab 71bd a68e 38bd 6d54 97bd
00000180: ba8e 333e 3645 febd e734 2e3e 35b3 3d3e
00000190: 233b 7dbe e5a4 353b a95f 24bd e467 27be
000001a0: 3c55 f63d e919 58bd 42da 773e fbf6 35be
000001b0: 705c df3d 0b44 58be c1ea 17be 6985 b33c
000001c0: b793 3d3e 43a5 073e 910d 6cbe a3a1 653d
000001d0: 4320 12be 0936 dc3c 8e35 55be 6fb5 92bd
000001e0: 4ff2 3c3e a1fe 7cbe ae67 85be ff81 833d
000001f0: 9a1c 203d 65b2 82bd 94e4 703e 7764 29be
-0.2375047 0.26437125 -0.03362334 -0.136844 -0.069094144 -0.21091324 0.20473649 -0.042952485
-0.14235614 -0.18262096 0.110593796 -0.0403823 -0.024504133 -0.06291199 -0.122742586 0.0563645
0.21337186 -0.19112131 0.029331317 -0.18404414 -0.12589794 0.21707551 0.0072055403 0.26420975
-0.04973948 -0.14813086 -0.16408452 0.23343384 -0.2480815 0.14885153 0.06941681 0.06595102
0.1393344 -0.08465902 0.14394067 -0.22198133 -0.07893779 0.18908621 0.07951164 0.0004582054
-0.054166272 -0.16082823 0.15758179 -0.014163373 0.027426237 0.06734133 0.18325414 -0.13959406
-0.092555895 0.16621485 0.16226141 -0.15156716 -0.29627302 0.035259344 0.14842296 0.060356695
0.20167501 -0.21924326 0.1209341 -0.17720252 0.14963666 0.1731421 0.09263461 0.21802707
-0.1616011 -0.25213358 -0.28444037 0.16208416 0.09147794 -0.17100157 0.13628322 0.226805
-0.2528365 0.20665474 0.064617515 0.024496619 0.2306873 0.24742636 0.122952655 0.21679601
0.13073334 0.022923121 -0.24152136 0.05681558 -0.18800743 0.07358352 0.03647737 0.027526362
-0.19018571 -0.17529963 0.18722753 0.13090181 0.13931699 -0.05900173 -0.045057915 -0.0738915
0.17534915 -0.12415545 0.17012368 0.18525393 -0.2472959 0.0027716693 -0.04013029 -0.16348225
0.12027976 -0.052759085 0.24204352 -0.17769997 0.10906303 -0.21119706 -0.14835645 0.0219142
0.1851338 0.13246636 -0.2305205 0.056062352 -0.1427012 0.026881235 -0.2082121 -0.07163512
0.18451808 -0.24706508 -0.26055664 0.06421279 0.039089777 -0.06381682 0.23524696 -0.1654223

network.2.weight f4 [128]
00000000: 3bd7 7b3f b761 7e3f 24f7 823f 118b 7f3f
00000010: 9da4 803f cd8d 7c3f ab0f 7a3f 7586 7d3f
00000020: 14f1 7a3f a0c0 793f c7c8 7d3f 59d7 7b3f
00000030: a378 7e3f 9bff 7b3f 6b25 7b3f 082f 813f
00000040: cc38 7f3f a28e 7d3f 2afb 843f b25c 803f
00000050: 3596 7b3f d62d 7e3f 153d 803f a9de 7e3f
00000060: 49e4 7e3f 2e94 843f 1b82 7b3f 6ff1 7b3f
00000070: c9d4 833f ab6a 833f 0af6 803f 71e1 7e3f
00000080: 3ed8 773f 0408 803f a703 813f be9b 803f
00000090: d48a 803f 95bc 7d3f 159e 843f fd14 803f
000000a0: af2b 7e3f 66e2 823f 191a 7e3f 545b 7e3f
000000b0: 7916 803f 00f8 7b3f 9fe1 803f d1b5 813f
000000c0: 27c3 803f e827 803f 6b47 813f f064 813f
000000d0: 8d07 823f 7b73 813f 3679 803f c969 7c3f
000000e0: cbcb 7d3f 7d7a 7a3f 4de8 7b3f e460 813f
000000f0: 7fa3 803f 5b56 803f aea3 813f ad1b 803f
00000100: 2474 803f e233 813f f95d 803f 636c 803f
00000110: 54be 813f 4576 7f3f 57ee 7b3f d442 803f
00000120: d4f5 803f ca70 803f beea 823f da10 813f
00000130: 816b 7c3f 6936 803f c206 803f 82cb 843f
00000140: 2734 813f 6126 7f3f 858f 7e3f 4a14 803f
00000150: 0b3d 7e3f af83 7d3f 441c 7b3f 8154 7c3f
00000160: 7582 7f3f c03a 7e3f 3085 7d3f d6c5 803f
00000170: 0e54 803f 1533 813f 52f1 7a3f 5f07 803f
00000180: 270f 7a3f 493f 813f 30d1 813f 4805 7a3f
00000190: c6b8 803f 7af8 813f 15a5 803f 418a 803f
000001a0: 0146 7d3f b77d 763f 3b77 783f c389 773f
000001b0: 9e47 7d3f 3c97 7b3f 1ef9 7a3f c13d 783f
000001c0: 1dee 7d3f c0b8 7e3f 8afe 7e3f 6ac9 843f
000001d0: eac9 803f 8838 7e3f 38b9 823f e721 823f
000001e0: ee4a 823f eef0 803f 3cb1 7b3f 85fc 813f
000001f0: 2eee 803f 71c2 813f 3aa6 803f a1cb 7a3f
0.9837529 0.9936785 1.0231671 0.99821573 1.0050236 0.9865387 0.9768016 0.9903329
0.98024106 0.9755955 0.99134487 0.9837547 0.9940283 0.984369 0.9810397 1.0092478
0.9969604 0.99045765 1.0389149 1.0028288 0.9827607 0.9928869 1.0018641 0.995585
0.99567086 1.0357721 0.982454 0.98415273 1.0299312 1.0266927 1.0075085 0.99562746
0.96814334 1.0002446 1.007924 1.0047529 1.0042367 0.9911588 1.0360743 1.0006405
0.99285406 1.0225341 0.9925857 0.99358106 1.0006858 0.9842529 1.0068854 1.0133611
1.0059556 1.0012178 1.009992 1.0108929 1.0158554 1.0113367 1.0036991 0.98598915
0.9913909 0.9784315 0.9840134 1.0107694 1.0049895 1.0026354 1.0128076 1.0008446
1.0035443 1.0093958 1.0028678 1.0033077 1.0136209 0.9978984 0.9841055 1.0020394
1.0075021 1.003442 1.0227888 1.0083268 0.9860154 1.0016605 1.0002062 1.0374606
1.0094041 0.99667937 0.99437743 1.0006192 0.99311894 0.9902906 0.98090005 0.9856644
0.99808437 0.99308395 0.99031353 1.0060375 1.0025651 1.0093714 0.98024476 1.000225
0.9767937 1.0097438 1.0141964 0.9766431 1.0056388 1.0153954 1.0050379 1.0042192
0.9893494 0.96285576 0.9705693 0.9669458 0.98937404 0.9827764 0.9803637 0.9696923
0.9919146 0.99500656 0.99607146 1.0373967 1.0061619 0.9930501 1.0212774 1.0166596
1.0179117 1.0073526 0.98317313 1.0155188 1.0072687 1.0137464 1.0050728 0.97966963

network.2.bias f4 [128]
00000000: 6597 5c3b 1acd 98bb df7a b73c 75dc bcbb
00000010: d7f1 91bc f4e6 933a d124 37bc 2f07 3fbc
00000020: ac95 9fbc e271 06bc 2cc6 533c a61d ab3c
00000030: 7fd3 17bc a1a7 a83c b242 99bb e8d2 a7bb
00000040: b00e 8f3c babb e13b d433 bc3b f075 5bbc
00000050: c439 78bb 7dde b33c aaeb 933b 5cca 9a3c
00000060: 54d7 e03c 7350 7dbb 9cab 57bb ff83 16bd
00000070: 949d 213d 893b debc 022f b1bc de95 90bc
00000080: e8db 823c 9b9a 82bb fb53 57bc f3b2 18bc
00000090: 347f c53a a985 a7ba 6336 80bb 849b 093d
000000a0: 3372 6dbc 3eb5 933c 40fd b1ba ebbf 0abc
000000b0: 59b9 23bc 2d2f 3e3b 8c5b de3c dcdb ad3c
000000c0: 7c82 d33c 4ab8 e5bc bd47 d1bc 5b52 483c
000000d0: 16c5 a93c d422 253d 34f5 bf3a 1365 72bc
000000e0: cd74 2e3c 43e6 26bb 7e02 e4bb eea3 41bc
000000f0: ff20 9d3b d878 2bbc 9e94 8f3b 9769 8a3c
00000100: f227 083c 908d 15bc 3b68 173b b729 3d3c
00000110: ccbc e5bb 1c8f 88bc b226 963b 3489 603c
00000120: bb44 f1bb cf87 263c 72f5 4ebb 32f8 163b
00000130: d8dd 793c bb07 97bb 5626 f13a 3f1a edbc
00000140: b7d4 97bc 08e9 3e3c d7ee 973c ce0e c03b
00000150: e840 123c 222c e03c 5f59 11bc 0ea3 073d
00000160: b23d 75bc 42a1 983c a38d 7e3c 60e4 23bc
00000170: 9691 723b db05 13bc 4f8b 423b 413e 183b
00000180: e3cb 513c 4dd5 00bc cab0 21bd cd39 c4ba
00000190: 2216 6bbb 1b6a 3abc 11a8 83b9 dbb8 01bc
000001a0: 8286 fd3b 8079 3cbb 8a7e f73b 15a0 203c
000001b0: 1148 1ebd c16e 393b c775 c13c 045e 743c
000001c0: 87ef 14bc da14 e7bb 8f35 583c 51d6 55bc
000001d0: 0efb d33b 9519 e1bb ab23 aa3c 4694 823b
000001e0: dd8b 5f3c 73ca 88bc 031c 37bc f216 c33c
000001f0: 622a ddbc 4cd4 553c c1a4 06bc 3154 3bbc
0.0033659574 -0.004663122 0.022397457 -0.005763585 -0.017815514 0.0011284039 -0.011178211 -0.011659428
-0.019480549 -0.008205863 0.012925666 0.02088816 -0.009266733 0.020587744 -0.00467714 -0.0051215775
0.017463058 0.006888834 0.005743483 -0.013394818 -0.0037876228 0.021956677 0.0045141773 0.01889532
0.027446426 -0.0038652688 -0.0032908684 -0.036746975 0.03945692 -0.027127998 -0.02162886 -0.017649587
0.015974 -0.0039857156 -0.013142581 -0.009320009 0.0015067817 -0.0012780923 -0.0039127334 0.033595577
-0.014492559 0.018030759 -0.0013579503 -0.008468608 -0.009992921 0.0029019818 0.027143262 0.021223001
0.025819056 -0.028041977 -0.025546903 0.012226666 0.02072386 0.040316418 0.001464522 -0.014794606
0.010647965 -0.0025466837 -0.006958305 -0.011818869 0.004795193 -0.010465823 0.00438173 0.016896052
0.008310305 -0.009127989 0.0023102898 0.01154559 -0.0070110317 -0.016669802 0.0045822496 0.013704587
-0.0073629296 0.010164215 -0.0031579402 0.002303612 0.015250646 -0.004609076 0.0018398266 -0.02894318
-0.018534048 0.011652239 0.018546505 0.00586114 0.008926608 0.027364794 -0.008871405 0.033114485
-0.014968323 0.018631581 0.0155366985 -0.010003179 0.0037013046 -0.008973564 0.0029685085 0.0023230466
0.012804958 -0.007863355 -0.03947524 -0.0014970839 -0.0035871346 -0.011377837 -0.00025111486 -0.007917608
0.007736982 -0.0028758943 0.0075529264 0.0098037915 -0.038642947 0.0028294774 0.02361573 0.014914993
-0.009090311 -0.0070520462 0.013196363 -0.013051585 0.006469137 -0.0068695047 0.020768961 0.0039849607
0.013644186 -0.016698098 -0.011176112 0.023814652 -0.026997749 0.013051104 -0.008217991 -0.011433647

network.2.running_mean f4 [128]
00000000: 679a 493e 4ba6 913e 527c 453e 71b6 993e
00000010: 2b1b 443d 1690 783e f1c1 af3e 48b2 ce3e
00000020: 2e2e 713e 851e 063e d8e2 8a3e 82cc 313e
00000030: bf2b 6b3e 42a2 e43d f8c3 923d 08dd 363e
00000040: d996 9c3e 9933 413e 6c6c 843e 02aa 223e
00000050: 1ca2 6b3e b426 af3e 87f4 733e 6cea f23e
00000060: 16a8 533e 1a5b c73d 5347 213e 3f90 993e
00000070: 0770 cb3c 2723 443e c684 6c3e c95b 4e3e
00000080: dce8 a03e 0f2e 673e be18 b43e 6d45 923d
00000090: 836b 363e 4878 aa3e eaec 583e 19b9 793e
000000a0: 8d2a a33e c277 883d 2e23 963e 83ee 713e
000000b0: c956 883e 57ea c53e 4c50 5b3e 8df8 d53d
000000c0: 6da5 243e 7a95 b23e a602 913e 22be 063e
000000d0: 02c8 7e3d b2cd 593e 05fe 9d3e e898 373e
000000e0: e1bf 893e 1c35 683d 3f76 a03e 565e 223e
000000f0: f57b ab3e 302c 093f 6703 8c3e 4d39 a53e
00000100: 15fb c73d bd22 793d cf5b 9c3d febc c63e
00000110: 9350 9f3e b92b 213e cf81 683e f712 9a3e
00000120: f46e 0e3d 2f07 9d3e d92d 2b3e db73 813e
00000130: 7e62 cb3e fab0 0a3f db69 8c3e 5126 b53e
00000140: efa0 913e ce79 0f3e 93f3 f43d 4d35 523e
00000150: c976 ab3d 836a 9b3e 4b0e 923e 9cc5 493e
00000160: 35bc ae3d 1366 f73d 0c8e 9c3e 180d 583e
00000170: e564 dd3e f1d2 0f3e 10ce 2f3e 5c72 413e
00000180: c164 863e c94e 7c3e 39be cf3e 77b8 303e
00000190: 814a 413e 78a6 b53d 00c1 063e 6a5b a03d
000001a0: 8ec5 a93e 7900 703d efbd ae3e dfd7 2c3e
000001b0: 4b8b f23e d07c 2b3d 2a8a 5a3e a482 833e
000001c0: ba6d 433e 04dd 503e c3c1 333e 3783 853e
000001d0: 0af8 1c3e 1222 133e 3c73 5c3d 720f 373e
000001e0: 1b42 b23e 7f47 1e3e 3e52 753e d5a6 763e
000001f0: 2e7d 833e b0a6 353e 1268 e03e ba6a 263e
0.19687806 0.28447184 0.19285706 0.30022004 0.047877472 0.24273714 0.34327653 0.40370393
0.23552772 0.1309758 0.27126193 0.1736317 0.22965907 0.11163761 0.07166284 0.17857754
0.30583838 0.18867339 0.2586397 0.15885165 0.23011059 0.34209216 0.23823749 0.47444475
0.20669588 0.09734173 0.15749864 0.29992864 0.024833692 0.19154035 0.23097524 0.20152201
0.31427658 0.22576164 0.35175127 0.07142148 0.1781445 0.33294892 0.21184126 0.24387015
0.318684 0.06663467 0.29323715 0.23626141 0.26628712 0.3865535 0.2141735 0.10447798
0.1607873 0.34879667 0.28322333 0.13158467 0.06220246 0.21269873 0.30857864 0.17929423
0.26904204 0.056691274 0.31340215 0.15856299 0.3349301 0.5358305 0.27346346 0.3227028
0.09764687 0.060824145 0.076346986 0.38816065 0.3111616 0.15739335 0.22705768 0.30092594
0.034773782 0.30669543 0.16716708 0.25283703 0.3972358 0.54176295 0.2742451 0.35380796
0.28443095 0.14011309 0.119605206 0.20528145 0.08372266 0.303547 0.2852653 0.19704288
0.085319914 0.12080016 0.30577123 0.21098745 0.4324104 0.14045312 0.1716845 0.18891281
0.26248744 0.24639429 0.40574816 0.17257868 0.18876077 0.08869642 0.13159561 0.07829936
0.33158535 0.0585942 0.34129283 0.16879223 0.47371897 0.041867077 0.21341768 0.25685608
0.19084826 0.20396811 0.17554383 0.2607667 0.15328994 0.14368466 0.053820834 0.17876986
0.3481606 0.15456961 0.23957154 0.24087079 0.25681442 0.17739367 0.438294 0.1625165

network.2.running_var f4 [128]
00000000: e722 d33d aa6e c03d f04b 033e 57b8 263e
00000010: 8686 273c 5a8e 993e 7f41 313e fe7e 953e
00000020: b5f7 253e 4220 8d3d fcdd a53d 56be 063d
00000030: 2b7c cb3d 94ac 0a3d e34e 813c db5f 453d
00000040: ec06 523e 39c5 f63d af0f ce3d b561 b13d
00000050: 0cf1 4b3e 9661 033e dec8 103e d152 dd3e
00000060: e0a3 c83d 19dc 2a3d 7462 933d 33e5 8b3d
00000070: deb8 043c c7b4 413d c2ce 963d 5fdd d63d
00000080: 7b58 813e 72e6 043e 7be6 fc3d ae7b ae3c
00000090: a934 5d3d 1906 123e f7f1 733d 5ca4 963d
000000a0: eef3 463e 7e8a d93c 05af 973d 169c d93d
000000b0: 0b79 033e 8859 5a3e 10fc 4b3d 0a84 ef3c
000000c0: 1c31 933d ba4c 5f3e c478 053e 7a27 c83d
000000d0: 6e77 893c 9b04 d93d f418 e83d a30d 443d
000000e0: 40e8 b33d d62e 7f3c 391c 363e 7489 ba3d
000000f0: a11e 9c3e ce34 ae3e f7d0 e43d a193 8c3d
00000100: e0e4 343d a2d7 c33c abd8 a93c 503f 803e
00000110: dd75 113e a3c0 173d 1299 da3d 6d11 d93d
00000120: 2d85 513c 30e3 5e3d 70ef 123d 67b3 3e3d
00000130: 1fe9 853e 6175 183f 002d e83d d5e7 373e
00000140: 29a3 2f3e 6453 343d 3b13 813d 4f18 173d
00000150: 9f31 943c 6900 1f3e ab37 233e eaa6 aa3d
00000160: c151 dd3c 4d42 9e3d b7f1 d43d 79ef 303d
00000170: 9c06 913e 6115 853d cc50 8b3d c8c7 4a3d
00000180: a715 923d 72ee c63d 085f 0f3e 655d 133d
00000190: 8cf9 033e cbf2 793c c5bf 583d 9d96 ac3c
000001a0: ac99 933d ce92 953c 259a b13d 8bf8 9e3d
000001b0: 3532 eb3e 24a7 153c b69b d33d ad15 043e
000001c0: 73bb 1f3d 49c0 d33d 46ed 0e3e 79d8 d03d
000001d0: 2a68 923d 681f e63c 691e 543c b1fe cd3d
000001e0: b934 ab3d 584f b63d 1515 203e 6e35 e23d
000001f0: 9df4 1f3e 97a0 d13d fc6a 843e deb7 0d3e
0.103093915 0.093961075 0.12821937 0.16281258 0.010224944 0.29991418 0.17310141 0.2919845
0.16207774 0.06890918 0.08098981 0.032896362 0.099357925 0.03385599 0.015784686 0.048187118
0.20510453 0.12049336 0.10061585 0.08661214 0.19916171 0.12830195 0.14139125 0.43227246
0.09796882 0.041713808 0.07196513 0.06830826 0.008100716 0.047291543 0.07363655 0.10491442
0.25262818 0.12978533 0.12348648 0.02129921 0.0540053 0.14260139 0.059556928 0.07355568
0.1942899 0.026555296 0.07406429 0.10625474 0.12839143 0.21323216 0.049800932 0.029237766
0.07187101 0.21806613 0.1303435 0.097731546 0.016780581 0.105965815 0.113328844 0.047864567
0.087845325 0.015575131 0.17784204 0.09108248 0.30492118 0.34024662 0.111726694 0.068640955
0.044163585 0.023906533 0.020733198 0.25048304 0.14205118 0.037048947 0.10673727 0.10599027
0.012788099 0.05441588 0.035872877 0.04655781 0.2615442 0.59554106 0.11336708 0.1795953
0.17152084 0.04402484 0.06302496 0.036888417 0.018090067 0.155275 0.15939204 0.083326176
0.027016522 0.077274896 0.10397666 0.04319713 0.28325355 0.06498218 0.0680252 0.049506932
0.07133036 0.097134486 0.14001095 0.03597774 0.12888163 0.01525564 0.05291726 0.021067912
0.07207045 0.018258478 0.08671979 0.077622496 0.45936742 0.009134088 0.10332434 0.12898894
0.038997125 0.1033941 0.139577 0.10197539 0.07148774 0.028091148 0.0129467035 0.10058344
0.083596654 0.08901852 0.15633042 0.11045347 0.15620656 0.10235708 0.25862873 0.13839671

network.4.weight f4 [64, 128]
00000000: 6f87 a4bc d918 09bd c650 a0bc 0c6c 2ebd
00000010: 6ebf fe3c 3cc2 4ebc 6714 013d faea 33bd
00000020: 625e a53d 88ab 7d3d ec0f 95bd 251c 8cbc
00000030: 0231 87bd c762 0a3d 9424 8dbd f031 2abd
00000040: 9364 ad3d 8221 acbd 49f3 493d 8135 5bbc
00000050: a4ae 843d 6c12 9abc b615 ac3d f23e ac3a
00000060: 0ad9 00bc 981d 943d 9dba 94bd 9918 4dbd
00000070: 0f39 c43d 8bd5 92bd 43c3 a1bd 7c09 2bbc
00000080: 7c6d eebc 7dd5 1f3d 146c 61bd 4791 3d3d
00000090: 5713 abbd e61e 253c f62e 613d 8530 773c
000000a0: 867d bd3c 482e 8b3a 1e33 c4bc 869c b7bc
000000b0: d096 61bd 8334 48bd ca02 62bd fb07 d23d
000000c0: 06a3 edbc cbfa 1a3d 522d 8a3d 3f99 ccbb
000000d0: bd8b 1bbd 60f6 84bd 31ee 47bd 9416 993c
000000e0: c5ab aabd 8669 6bbc cc87 5a3d 663c ca3d
000000f0: 1301 bd3c ab6b c93c c20a 7f3d 2cf5 fe3c
00000100: 5774 a93c 5db4 aabc ec51 84bd a411 c1bc
00000110: 0d4a ffba f1a1 313c a13b ecbc 61cd 5e3d
00000120: e717 813d 48d6 53bd 55ce 94bd 152b 70bd
00000130: 23f7 0abd 2d4c 103d 65ee 23bd 67a9 a2bb
00000140: 9e17 b8bc 1b4f 30bd d9aa 5c3d 0616 53bd
00000150: 5044 383a d214 81bd f5fc 0d3c cd2e 02bc
00000160: 8110 4f3c e51c 0dbd e06f 963c 51ba fbbc
00000170: 6710 12bd 4e0f 52bd dca8 5abc 83ad a4bd
00000180: 7874 673d cd59 80bd daae fdbc b9e3 503b
00000190: c45e 333d 5f9d b6bc f9b2 a63d 6838 30bd
000001a0: 6b36 673c 66d6 2cbc 50af 84bd 210d 10bd
000001b0: e339 c93c a3b2 7cbc 11e3 423d 78e2 3c3d
000001c0: 53a2 04bd ca72 d6bc 6239 c6bc c4f0 c0bd
000001d0: 9e3c 48bd 1606 a1bd e317 cd3c 09d3 623d
000001e0: 99db 0c3d 6216 cabd 1d6f 78bd da65 35bd
000001f0: 298f 223d 86a8 023c 65fa 433c d8cd a63d
00000200: 6465 3e3d 6e6b c53c 243d c4bb 5573 ff3c
00000210: c8a7 0c3d d93c 84bd fd4f 6bbd 4814 3f3c
00000220: d063 173d c311 813d db46 58bd 76a4 a9bd
00000230: 7417 a13c 0f52 4c3c a660 df3c 24fd 5ebd
00000240: 5ca2 ad3d 1a36 d43c 8a44 a63d 2cd4 76bd
00000250: eea6 423d f707 bd3c fbad 4abd f9bf 5a3d
00000260: 4791 b4bd a650 783d 0c1a 123c ca2c af3c
00000270: 10b7 2b3d 1d60 373c f018 6d3d 188e 5d3d
00000280: 6ec6 a1bd 8311 513d 1d17 c23b 2de0 2ebd
00000290: 9ab5 8d3c 2cfc 983d ca32 02bd aca9 97bd
000002a0: 4faa 6b3d ee84 25bd 964e 0d3d 5174 bdbb
000002b0: 5130 b13c 3dc3 ab3d 97ad e8bc 72a9 2dbd
000002c0: 10c6 153d 9f0f 873c 980a 973c 8eaf b0bd
000002d0: 9f62 a93d e0a3 913b 80fe 13bc 4a95 95bb
000002e0: c99c c53a 951e 663d 7dfa 83bc dfae c13d
000002f0: c3a2 003a 7974 8cbc d82a 513d ea93 3c3c
00000300: 6881 1cbd f449 a43c 9935 703d 8324 263d
00000310: 4890 343d 10c8 183d be09 eb3c d5ed 053d
00000320: 2607 bb3c dbb8 d53b 9d4e a93d 10d5 b33d
00000330: ec24 3a3d 5265 51bb babd 963d 9080 7ebd
00000340: c677 943d 03f5 333d 244e 5d3d fdb4 50bc
00000350: fb59 a7bd 615a 8a3d 67f1 08bd ae0a 963c
00000360: bdab 2f3d cd8b 60bd aecd 68bc c8e1 02bd
00000370: 8e31 913d 8596 54bd bb1d 9e3d 45da 1d3d
00000380: a89f fa3c 29bb a43d 2f71 3f3c 87dd d3bd
00000390: 8c2c 8f3d a73f 873c e3ff a6bb ecd6 a6bd
000003a0: 5846 b6bc d98e 50bd 2ffe ba3d 1ab7 5a3d
000003b0: e267 9d3d c4cf 5b3d 31af 4cbd bb06 d6bc
000003c0: 9668 dbbc 7066 d0bc a634 803d e1d8 fb3c
000003d0: 560b 2b3d b706 57bc b484 a4bd 69be dbbc
000003e0: 7300 763d 2046 6b3d f528 d03c 126b 8fbc
000003f0: 5546 a6bd 9ef7 6bbd 3079 563d 979f 05bd
-0.020084111 -0.033470962 -0.019569766 -0.04258351 0.03109714 -0.012619551 0.031513598 -0.043925263
0.08074643 0.061931163 -0.072784275 -0.017103264 -0.066011444 0.033785608 -0.06891742 -0.04155153
0.08466449 -0.084048286 0.04930428 -0.013379456 0.064786226 -0.018807612 0.084025785 0.0013141318
-0.007864246 0.07232207 -0.07262156 -0.050072286 0.095811956 -0.07169636 -0.07898571 -0.010439273
-0.02910494 0.039021958 -0.055034712 0.046281125 -0.08353298 0.010078168 0.054976426 0.015087252
0.023131143 0.0010618651 -0.023950156 -0.022413503 -0.055075467 -0.048878204 -0.05517844 0.102554284
-0.0290084 0.03783683 0.067469254 -0.0062438543 -0.03797506 -0.06492305 -0.04881114 0.018687524
-0.08333544 -0.0143684205 0.053352162 0.09874801 0.023071801 0.024587473 0.06226612 0.031122766
0.020685358 -0.020837957 -0.06460938 -0.023567982 -0.0019477025 0.0108418325 -0.028837027 0.054395083
0.06303387 -0.051718026 -0.07265917 -0.058634836 -0.033927094 0.035228897 -0.040022273 -0.004964042
-0.022472199 -0.04304419 0.05387387 -0.051534675 0.00070292223 -0.06302799 0.008666267 -0.0079457285
0.012638212 -0.034451384 0.018363893 -0.030728491 -0.035660174 -0.051284127 -0.013345923 -0.08040907
0.056507558 -0.06267128 -0.030967165 0.0031874015 0.043791547 -0.022291837 0.08139605 -0.043022543
0.014112095 -0.010549163 -0.06478751 -0.03516877 0.024563735 -0.01542345 0.04757983 0.046114415
-0.032381367 -0.026177783 -0.024197284 -0.094209224 -0.048885934 -0.07862489 0.025035804 0.05537704
0.034389112 -0.098675504 -0.06065284 -0.044286586 0.03968731 0.007974749 0.011961554 0.0814473
0.046483412 0.024099078 -0.005988734 0.031182924 0.034339696 -0.06456918 -0.05744933 0.01166255
0.036960423 0.06302216 -0.052801948 -0.082833216 0.019664504 0.012470736 0.027267765 -0.054440632
0.08478233 0.025904704 0.081185415 -0.060260937 0.047522478 0.023075087 -0.049482327 0.053405736
-0.08816772 0.060623787 0.008917343 0.021383662 0.04192263 0.011192349 0.05788511 0.05409059
-0.078991756 0.05104209 0.0059231655 -0.04269426 0.017298508 0.07469973 -0.031786717 -0.07405409
0.057535466 -0.040409975 0.034498774 -0.0057816883 0.021629484 0.08386848 -0.028403087 -0.042397924
0.03656584 0.01648694 0.018437669 -0.086272344 0.082707636 0.0044445843 -0.0090328455 -0.004564916
0.0015076633 0.05618151 -0.016110653 0.09457182 0.0004907066 -0.017145382 0.05106625 0.011509875
-0.03820935 0.020054795 0.058644865 0.040562164 0.04408291 0.03730017 0.028691169 0.032697517
0.022830557 0.0065222806 0.082669474 0.08780873 0.045445368 -0.003195126 0.07360406 -0.062134326
0.072494075 0.043934833 0.0540296 -0.0127384635 -0.08171459 0.0675552 -0.033433344 0.01831564
0.04288839 -0.054820824 -0.014209194 -0.031953603 0.0708953 -0.05190136 0.077205144 0.038538236
0.030593708 0.080435105 0.0116847 -0.10344987 0.069909185 0.016509844 -0.005096422 -0.08146462
-0.02225034 -0.05091748 0.09130513 0.053397276 0.0768583 0.053664938 -0.049971763 -0.026126256
-0.026783269 -0.025439471 0.06260042 0.030743064 0.041758858 -0.01312416 -0.080331236 -0.026824193
0.060059022 0.057439923 0.025410155 -0.01750711 -0.081188835 -0.057609193 0.052361667 -0.0326229

network.4.bias f4 [64]
00000000: 8180 b5bd 148a 8b3d 879f 943d 5603 abbd
00000010: 25b6 8a3d 6799 90bd 8fa2 243d 69a0 653d
00000020: d7c9 643d 9a1c 3d3d aa6e 7dbd cfc0 6fbd
00000030: 3164 813c 3ef7 273d 9bbc a83d b32c 603a
00000040: 6ffd 243d c181 a1bd 8283 2cbc eb70 aa3d
00000050: 8fec a33b 808b a43d e275 7bbd b055 86bd
00000060: b0db 083d ac7f 09bc d7fd bdbd 7ed6 703c
00000070: 98f4 3abc 8627 0d3d d2bc 3e3c 5f74 6abd
00000080: 9094 51bd 52a1 66bd 34d4 963d 1354 3fbd
00000090: 2295 bb3d 1c11 ccbc c6fa 4f3c c7b5 d53d
000000a0: 7e42 63bd e143 c7bd abe9 8e3c 94bf 68bd
000000b0: c7f4 633d 1a35 ba3c 24d0 813d 2224 ba3a
000000c0: 4a00 98bd d150 66bd d654 96bd 5242 be3d
000000d0: d9e9 b8bc 5f0d 05bc c55e 20bb 5b57 14bd
000000e0: 617d 833d 65e2 0ebd 8316 2abd 6ce3 893d
000000f0: 84a0 183d b946 b93d 99f6 393d 3b90 6dbd
-0.08862401 0.06813446 0.0725699 -0.08350246 0.067730226 -0.07060509 0.04019409 0.056061182
0.055856552 0.046169855 -0.061873116 -0.058533486 0.015794845 0.041007273 0.08239099 0.00085515826
0.040280756 -0.07886077 -0.010529401 0.08322319 0.005002565 0.0803442 -0.06139172 -0.06559312
0.033412635 -0.008392256 -0.09276932 0.014699576 -0.011410855 0.03446152 0.011641698 -0.057239886
-0.05116707 -0.05630619 0.07364693 -0.04671104 0.09159304 -0.024910502 0.012694066 0.10435062
-0.055483334 -0.09729744 0.017445406 -0.05682333 0.05565336 0.022730399 0.06338528 0.0014201442
-0.0742193 -0.056229416 -0.073404 0.09289993 -0.022572445 -0.008120864 -0.002447055 -0.03621612
0.064203985 -0.034883875 -0.041525375 0.067328304 0.037262455 0.090466924 0.04540119 -0.057998877

network.6.weight f4 [64]
00000000: 0578 803f 216f 793f 7ccf 813f d645 813f
00000010: 45db 793f 32be 7f3f 6417 773f fa8e 7f3f
00000020: 59e2 833f bbfd 7e3f d552 833f fe18 823f
00000030: e418 823f c1ed 7c3f 3cbc 803f 89b1 7c3f
00000040: 6ba5 863f f08a 823f e346 793f bcdb 7e3f
00000050: 0cca 7b3f 40c7 7f3f 9a3d 7d3f 4c22 7e3f
00000060: e255 7b3f 3f98 7c3f 84e8 7a3f dca7 783f
00000070: 04b5 7a3f c4cf 7e3f 422e 823f 973b 833f
00000080: 94f8 813f 5adf 843f cdc6 7e3f a130 813f
00000090: 0c5e 7d3f 13c0 813f 827c 813f 67e3 823f
000000a0: 8bc9 803f 5a91 823f 20f7 7a3f 4443 793f
000000b0: 156f 803f 707a 7f3f b97e 843f e4df 753f
000000c0: fd07 7b3f a067 7a3f d929 813f 6314 813f
000000d0: 3b12 823f 342c 843f 9d0a 7c3f 18fb 833f
000000e0: 5708 7d3f e2b9 823f 8d86 7c3f 2f04 803f
000000f0: 450f 813f 8868 803f ddff 7e3f 534c 773f
1.0036627 0.97435194 1.0141444 1.0099437 0.97600204 0.9989959 0.96520066 0.9982754
1.0303451 0.9960591 1.0259653 1.0163877 1.0163846 0.98800284 1.0057445 0.987084
1.0519232 1.019865 0.9737379 0.9955404 0.98355174 0.99913406 0.9892212 0.9927108
0.9817792 0.9866981 0.9801104 0.97131133 0.9793246 0.99535775 1.0170367 1.025256
1.0153985 1.0380661 0.99522096 1.0092965 0.9897163 1.0136741 1.0116122 1.0225648
1.0061506 1.0200608 0.9803333 0.97368264 1.00339 0.997962 1.0351173 0.96044755
0.98059064 0.9781437 1.0090896 1.0084347 1.0161813 1.032599 0.98453695 1.0311003
0.9884085 1.0212977 0.9864281 1.0001277 1.0082785 1.00319 0.99609166 0.96600837

network.6.bias f4 [64]
00000000: ee14 a0bc 74f8 14bd 8f56 ab3c 1562 14bd
00000010: 44ff f7ba 285b 7bbb 6508 d13a b2e2 033b
00000020: 3124 07bd 71ee 86bc bdfe 20bb 333c 51bc
00000030: 222a 52bc f594 46bb 9b97 44bb 8a1f 003c
00000040: dd4a 843c dcb0 a73b d842 b03c 11bd da3c
00000050: 1566 a73b 2b1e 3f3c 9751 d83b b497 29bc
00000060: 3a00 bf3c 6dd7 16bc 0a46 11ba 8d46 29bc
00000070: 696a f9bb 99c0 19b9 4092 a7bb a53d ba3b
00000080: e8c8 153c a14b eabc cd1b 04bd 717c 233b
00000090: 6a46 913c e51c 16bb b576 8bbc 1a33 983c
000000a0: 245b cfbc 7aed 84bb d96c 00bc 281a c93c
000000b0: 078b 03bc d27a 45bc bb99 ec3b a141 413c
000000c0: 31ba 98bc 9713 903c 2371 ca3b 4279 883c
000000d0: 5008 a5bb 314c 3ebc c9db 44bc dd47 babc
000000e0: fd08 90bc 89c4 ceba c660 d83c aa94 803b
000000f0: 1b49 e23c 24b6 e33c 4360 6fbc a7ee 613b
-0.01954123 -0.036369756 0.020915298 -0.03622635 -0.001892068 -0.0038353894 0.0015947936 0.0020124135
-0.0329935 -0.01647112 -0.0024565898 -0.0127707 -0.012827428 -0.0030301188 -0.002999759 0.0078200195
0.016148979 0.005117519 0.021516249 0.026701482 0.0051086047 0.011664907 0.006601523 -0.01035111
0.023315538 -0.009206635 -0.00055417477 -0.010331762 -0.007611562 -0.00014662965 -0.00511387 0.005683618
0.009142138 -0.028600516 -0.032253075 0.0024946 0.017733771 -0.0022905406 -0.017024377 0.018579055
-0.025312014 -0.0040566297 -0.007838451 0.024548605 -0.008028752 -0.012053208 0.0072204745 0.011795432
-0.01864347 0.017587466 0.0061780377 0.016659383 -0.0050363913 -0.011614845 -0.0120152915 -0.022739345
-0.017582411 -0.0015775125 0.026413333 0.003923972 0.02762275 0.027796812 -0.014610353 0.0034474523

network.6.running_mean f4 [64]
00000000: 1f87 963e bba5 b43e 6f7d d43e 9636 a93e
00000010: a4f5 923e 2258 aa3e f29a a23e 25d9 b33e
00000020: 10ba de3e 26a0 af3e eb29 6a3e 1cb8 883e
00000030: e58f a13e e0c7 963e e4f0 e73e 0051 753e
00000040: bd3c ad3e 6cd8 783e 94a7 9e3e cca2 a13e
00000050: c265 c23e e60f 8d3e 2d46 a93e f96f a13e
00000060: a56b c83e 2499 993e 5862 353e 02af 823e
00000070: 7559 933e 5e7e 9b3e eebc bd3e ae95 9d3e
00000080: 8410 933e 8c9c d53e 68e0 c03e ef73 a73e
00000090: 1883 aa3e 50bb 853e 7cf3 893e 5dc7 af3e
000000a0: 614e 8f3e 21a0 883e d3dc 8e3e 3915 aa3e
000000b0: 46bc a13e 253a ac3e b3a1 c73e f0ec a33e
000000c0: 9556 9a3e 72ea 8d3e 46c4 783e d5fd b23e
000000d0: f6b7 ad3e 3deb a93e cded a93e 613e d03e
000000e0: a1f8 b33e e68f 923e 9ca0 a83e 58aa 9e3e
000000f0: 8db5 793e 33c6 be3e a962 b63e c6d6 8d3e
0.29399964 0.35282692 0.41501948 0.33049458 0.28703034 0.33270365 0.3175884 0.35126606
0.4350133 0.3430187 0.22867553 0.26702964 0.31555095 0.29449368 0.45300972 0.2395668
0.33835402 0.24301308 0.30987227 0.31569517 0.3796826 0.27551192 0.33061352 0.3153074
0.39144626 0.2999965 0.17713296 0.25524145 0.28779188 0.30369848 0.37058204 0.3077826
0.28723538 0.41720998 0.37671208 0.32705638 0.33303142 0.2611947 0.26943576 0.3433179
0.27989486 0.2668467 0.2790285 0.33219317 0.31588954 0.3363811 0.38990554 0.32016706
0.30144182 0.2771793 0.24293622 0.34959283 0.33929414 0.33187285 0.3318924 0.4067259
0.35150626 0.2862541 0.32935035 0.30989337 0.24385662 0.3726059 0.35622147 0.27702922

network.6.running_var f4 [64]
00000000: f926 9a3e d8dd bd3e 7f7f 873e b5b7 a53e
00000010: 935d 513e c736 763e 37ad af3e 99df 853e
00000020: 3d98 a53e e2f4 a63e dfb5 e13d d560 663e
00000030: 536d 443e fc79 193e 4a11 e53e 24a7 0d3e
00000040: 5c06 8e3e d64e 4c3e 07ad 4d3e 7460 273e
00000050: 220b 923e 11ad 693e 032f 8f3e 9418 843e
00000060: 19eb df3e d0c5 b13e ebae f53d bb12 0d3e
00000070: 2883 813e 58d4 143e fb46 0c3f 4064 693e
00000080: eb00 363e f495 d63e 91dd 9c3e 4892 ab3e
00000090: 545e 673e ccd1 7a3e 8048 203e f916 5c3e
000000a0: 4971 503e e136 333e ebea 533e 5b58 b93e
000000b0: b1c7 633e 7a48 433e 63de 073f 5c13 433e
000000c0: bd53 3b3e 5ea5 8a3e 2288 4c3e 33f5 6f3e
000000d0: 990b ad3e f70d d73e 76f2 453e bbe8 1b3f
000000e0: 8188 b73e 4d85 993e 8c8c a43e 1ddf 593e
000000f0: 54a1 153e 129f 9c3e ff16 513e 3d96 8a3e
0.3010786 0.37083316 0.2646446 0.3236672 0.20445852 0.24044333 0.3431184 0.26147154
0.3234271 0.32608706 0.11021017 0.22497876 0.19182329 0.1498794 0.44739753 0.1383329
0.27739227 0.19951949 0.20085536 0.16345388 0.2852412 0.22819926 0.27965555 0.25800002
0.43734053 0.3472123 0.119962536 0.13776676 0.25295377 0.14534128 0.5479581 0.22792149
0.17773788 0.4191128 0.30637792 0.3351004 0.22594577 0.24494094 0.15652657 0.21493138
0.20355715 0.17501403 0.20695083 0.36200222 0.22244145 0.19070616 0.5307371 0.19050354
0.18293662 0.2707929 0.19973806 0.2343338 0.3379791 0.42002842 0.19330773 0.60901994
0.35846332 0.29984513 0.3213848 0.21276517 0.14612323 0.3059011 0.20418929 0.27067748

network.8.weight f4 [32, 64]
00000000: 0e5a 043d 33c0 15bd f005 24bc 8a3a ab3d
00000010: 0a9f f2bc 0269 db3d 7960 d03b 63e0 a13d
00000020: 1127 fd3c c8ba 0ebe 5c69 babd 36e6 a0bd
00000030: 4bb1 a33c 7af9 9dbd 34dc d1bd fc9d aa3c
00000040: f126 efbd 2be4 79bd 66a9 76bd c98d a03d
00000050: 2dbd 073e 547b 1a3d 1828 76bd 94d8 ca3d
00000060: ddb3 cc3d af76 44bd ccd0 a13d eed2 423c
00000070: c37d aebd 5daa 42bc f7c7 ddbd a6b2 b23c
00000080: b3e1 843d 5201 e8bd d890 63bd 003b 083c
00000090: 59ee dc3d cede 77bd cba6 443b 92ce 3d3c
000000a0: c7b0 78bd fe4c 14bd f239 32bd a93e 1fbd
000000b0: 09fa 62bd c538 5d3c 6b70 12bd a8d9 98bd
000000c0: 43df a13d 218b 813d 54b4 cdbb 11e9 efbc
000000d0: 82c5 09be e7e9 cdbd d39e 0a3d 7b1e 31bd
000000e0: b219 063d d5b2 b0bd 640f 42bd 2e27 80bb
000000f0: 44ad 073e 9975 aa3d 39b3 bbbd abb1 eabc
00000100: c02e 113c d24e 13bd 25fc 523d 0487 803b
00000110: eb30 87bd 9e21 11be e3f0 e4bc 593d cbbd
00000120: 01f2 a13d d4a6 a3bd a89b cabd 1f66 82bd
00000130: e7e6 df3d fd11 1dbd d1f4 d63d 783c cfbd
00000140: 808c d03d 63be edbc c8f8 9dbd fec0 123e
00000150: 42ba 8cbd 7129 5ebd 9034 713d 6ceb bd3c
00000160: 31b6 18bd 1dd1 ce3d a88b cabd 8cfa 3fbd
00000170: 543b a83d c137 55bd 1414 433d d27a 22bd
00000180: 3a30 25bc 0e9c 003e 015e cabc 6646 ae3d
00000190: ab1a cd3d 1336 ba3d 039f 843d fb61 9d3d
000001a0: 6353 30bd bbce 6dbc 40ef 53bd 206d ccbd
000001b0: 4880 a93d f22f fdbd b7f1 70bd e667 2cbd
000001c0: 87bc 06be 1d0e b2bd c8e3 24bd ba55 dd3c
000001d0: 5b5a c2bd aca7 d6bd 5701 6dbd 696a efbd
000001e0: f780 de3c c1e0 c0ba c97f 9d3c 9a63 cb3d
000001f0: 0a27 89bd fe81 90bd d523 2c3d 4ba2 af3d
00000200: 2283 d63c f7c5 32bd 027e d73c f445 cabd
00000210: 13e7 8abd 7115 6abd 863a cabd 5276 cdbd
00000220: 7d3a c6bd 1ae7 e93c 9e15 d63c 13e0 a13c
00000230: 1208 90bc f031 44bc 2ab7 893d 9e24 cbbd
00000240: 500e e53d aed4 6a3d 8c9d 45bd e90d e73d
00000250: a2c7 623c 0637 77bd 41dd e93d d6a4 4f3d
00000260: 411c a83d d2f1 1bbd 387e c6bd 428c af3d
00000270: 8526 343c 11bc a33d b46d e7bc 9077 6b3d
00000280: 9970 c7bd 23b0 d03c aaeb 833d 7c2c 14bd
00000290: 03c5 0d3e e224 133d 36fa 8f3d 6c37 fc3d
000002a0: 9f97 fbbc 5fb1 02bd c812 4d3d 0ad2 66bd
000002b0: b5bd ccbd 3f68 a53d 5ab6 cebd ef97 90bd
000002c0: 70b7 b43c 9caa 15bb 780a bebd 31ca 24bd
000002d0: e283 c33d a68c 97bd 2d8c b23d 505e 0ebc
000002e0: d7f3 3fbd 2f30 0cbe ec9a 0abd 6fda c83d
000002f0: 5c9f aebd 7833 dfbd 19a6 27bd 8bdc 903d
00000300: 5d93 bf3a ddf2 e33d 3838 013e 00fb 0b3e
00000310: fe75 8cbd 8b84 e7bd 24b2 92bd f519 80ba
00000320: c147 5bbd 0340 4e3d ab3f c9bc bfd3 023e
00000330: 8ded dabd 33cf efbd 757a 25bd 8e7e 17bc
00000340: ead9 f33d c3bd 6cbb 356c b23d 4510 d9bc
00000350: 2f5b 62bb 3214 5dbd c4c8 50bd a5bd 19bd
00000360: 4f99 eabd 3232 4cbc 8cf9 f8bc b251 b9bd
00000370: 2caa 94bd b7db 15be cafe febb 46a4 07be
00000380: 19dc e53d 902f b1bc 7b08 473c d40d c6bd
00000390: 79b8 463d aec2 ccbd 0795 ae3d f763 933d
000003a0: 94f4 00be 35c3 393d 1465 163c 2e68 62bd
000003b0: 75fa a0bd 58a6 dd3d 48d2 90bd 0bec c93d
000003c0: be07 2e3d 9343 603d 6cbe 4cbd 4e2f 043d
000003d0: 189b 4c3c 69df bd3d d590 febd d279 53bd
000003e0: acee ac3c 186e e1bd 04d0 123b a1fc b33d
000003f0: 855d e63d 7491 8dbd ae24 103d aced a7bd
0.032312445 -0.03656025 -0.010011181 0.08360775 -0.029616851 0.10713388 0.0063591567 0.079041265
0.030902417 -0.13938439 -0.09102127 -0.07856409 0.019982 -0.077135995 -0.102470785 0.020827286
-0.11677349 -0.061008614 -0.060220145 0.07839543 0.13255759 0.03771527 -0.06009683 0.0990459
0.09995244 -0.047964748 0.07901153 0.01189111 -0.08520081 -0.011881438 -0.10829156 0.021813702
0.06488361 -0.11328377 -0.055558056 0.008314848 0.10787649 -0.060515217 0.0030006643 0.011584895
-0.060715463 -0.036206238 -0.043512292 -0.038878117 -0.055414233 0.013502304 -0.03575174 -0.0746339
0.07903912 0.06325365 -0.0062776003 -0.02928594 -0.1345425 -0.10054379 0.033842873 -0.04324196
0.03273935 -0.086278595 -0.04737796 -0.0039109206 0.1324969 0.08323211 -0.091650434 -0.028649172
0.008861244 -0.03596384 0.051509995 0.003922345 -0.06601127 -0.1417298 -0.027946895 -0.099238105
0.07907487 -0.07990804 -0.0989297 -0.06367134 0.10932713 -0.038347233 0.10495914 -0.101189554
0.10183048 -0.029021448 -0.07713467 0.14331433 -0.06871463 -0.05423874 0.058888018 0.023183547
-0.037283126 0.10098479 -0.098899186 -0.0468698 0.08214441 -0.052055124 0.04762657 -0.03966791
-0.010082299 0.1255953 -0.024703028 0.08509521 0.10014852 0.09092345 0.064756416 0.07684704
-0.043048274 -0.01451462 -0.05174184 -0.099817514 0.08276421 -0.123626605 -0.058824267 -0.042091273
-0.13157855 -0.08694098 -0.04025629 0.027018417 -0.0948989 -0.104811996 -0.057862606 -0.11690218
0.027161105 -0.0014715419 0.019225972 0.09931107 -0.06696899 -0.07056044 0.04202636 0.08575877
0.026185576 -0.043645825 0.026305202 -0.09876624 -0.06782355 -0.057149354 -0.09874444 -0.100323334
-0.096791245 0.02855258 0.026133355 0.019760167 -0.017581973 -0.011974797 0.06724389 -0.099190935
0.111843705 0.057331733 -0.04824595 0.1128195 0.0138415415 -0.06035521 0.11419154 0.05069431
0.08208514 -0.038072415 -0.09692043 0.08571674 0.010995512 0.07994855 -0.028250553 0.05748707
-0.09738273 0.025474614 0.06441434 -0.036175236 0.13844685 0.035923846 0.07030146 0.123152584
-0.030711947 -0.031907436 0.05006674 -0.056352653 -0.09997121 0.08076524 -0.100933746 -0.07060229
0.022060126 -0.0022837287 -0.092793405 -0.040231887 0.09546639 -0.073998734 0.08718143 -0.008689478
-0.046863403 -0.13690256 -0.03383915 0.09807288 -0.08526489 -0.10898489 -0.040929887 0.07073315
0.0014616061 0.11130307 0.12619102 0.13669968 -0.06858443 -0.113045774 -0.07162884 -0.0009773361
-0.053535227 0.050354015 -0.024566492 0.12776087 -0.106898405 -0.11709442 -0.040399987 -0.009246482
0.11906798 -0.003612385 0.08712045 -0.026497016 -0.0034539213 -0.053974338 -0.050972715 -0.037534375
-0.114550225 -0.012463139 -0.03039243 -0.09048785 -0.0725902 -0.14634596 -0.007781838 -0.13246259
0.11223621 -0.021629125 0.012148018 -0.09670606 0.04851577 -0.0999807 0.085245185 0.07196801
-0.12593299 0.04535218 0.009179372 -0.055275135 -0.07860271 0.10822743 -0.07071358 0.09859475
0.042487852 0.054751944 -0.049986288 0.032271676 0.012488149 0.09271128 -0.12429968 -0.05162985
0.021109901 -0.11007327 0.002240182 0.087884195 0.11248306 -0.069125086 0.03519123 -0.08199629

network.8.bias f4 [32]
00000000: 9fee 13bd d00f ac3d e40c 09bc 159a e03b
00000010: 4967 b6bd 4be4 78bd 5d1b 863d 3018 5dbc
00000020: c97d 3d3d ef12 b5bd cb47 3dbd d277 a23d
00000030: bc53 c33d 8d34 0cbc ede7 c3bd b051 71bd
00000040: 9c41 23bd 9a14 5a3d a7ef e0bd e2d0 a7bd
00000050: 3538 14be 0133 99bd 4b4d a63d d713 26bd
00000060: 64fa e1bb c5ac 9c3b eba5 48bc 79fb c8ba
00000070: 1c55 353c 74ed 9abd 1fa1 fa3d 259e fc3b
-0.03611624 0.084014535 -0.00836489 0.0068543055 -0.08906419 -0.060764592 0.06548188 -0.013494536
0.046262536 -0.08841502 -0.046211045 0.0793301 0.095374554 -0.008557451 -0.09565721 -0.058915794
-0.03985749 0.053242303 -0.1098321 -0.08194138 -0.14474566 -0.07480431 0.08120211 -0.040546264
-0.006896304 0.004781338 -0.012246589 -0.0015333734 0.011067655 -0.07564822 0.12237763 0.007709282

network.10.weight f4 [32]
00000000: 1f88 723f e0c2 7b3f 1056 693f 85e2 723f
00000010: 19cc 703f b346 733f 17b6 763f d197 733f
00000020: 915c 6c3f 2ac1 673f c67a 6c3f cb80 713f
00000030: 987c 763f 4e29 6a3f c3b6 6d3f d0fc 763f
00000040: 531a 673f c4d3 663f 1389 683f 287e 733f
00000050: 106b 6d3f dabb 733f 4d6c 703f 098b 773f
00000060: ce21 763f e80b 743f 480e 783f 585c 6d3f
00000070: 16c6 6e3f 1fb9 773f 067d 713f 2ddf 6c3f
0.94738954 0.9834423 0.91146946 0.9487689 0.9406143 0.95029753 0.963716 0.9515353
0.92328745 0.9052912 0.9237484 0.9433715 0.96283865 0.91469276 0.92857 0.9647951
0.9027454 0.9016688 0.9083416 0.95114374 0.9274149 0.95208514 0.93915254 0.96696526
0.9614533 0.9533067 0.9689679 0.9271903 0.93271005 0.9676685 0.94331396 0.9252804

network.10.bias f4 [32]
00000000: 217f 323c 7316 e63b ad5d 1c3c bc08 853c
00000010: 5b76 00bc 5eec b1ba b0bd 39bb 9c48 28bc
00000020: 0df1 13bc cb9a 453c 15ec 953a c59b 303c
00000030: 05e7 263c 7ae9 1b3c 9fb7 5cbb c638 823c
00000040: f8a0 9bbb 51a1 a43b dc4b b23c 8745 8fbc
00000050: 2cde d63b a815 9bbc 0da9 6a3b 3ecb 93b8
00000060: 6a5f a9bc 0524 3b3c 6bd4 94bc 94c2 47bc
00000070: 6831 e6bb 06b2 9fbc 63c1 203c 121a b8bb
0.010894568 0.007021719 0.009543818 0.016239516 -0.007840718 -0.0013574471 -0.0028341822 -0.010271218
-0.009029639 0.012060831 0.0011438156 0.010779326 0.010186915 0.009516114 -0.0033678783 0.015896212
-0.0047494136 0.005024113 0.021764688 -0.017489208 0.0065572467 -0.018931225 0.0035806329 -7.047363e-05
-0.02067538 0.011422162 -0.018167695 -0.012192387 -0.0070249327 -0.019494068 0.009811732 -0.005618342

network.10.running_mean f4 [32]
00000000: 2455 913e a963 b63e 7ee4 a53e 493d 943e
00000010: cd08 853e 2765 3c3e 463a a83e 2fe8 a33e
00000020: a8cf 993e d51d 843e 8123 a43e 478f cf3e
00000030: 1499 9a3e 2786 bd3e 4977 813e 13b5 773e
00000040: 7e35 c93e 7b04 943e 65a0 a73e 455a 793e
00000050: e019 b83e bbc5 883e ead9 973e c690 8e3e
00000060: acb6 7e3e dcaf ba3e dc5d 733e 1d22 933e
00000070: 1d30 893e 181c c03e 9968 b93e 32df aa3e
0.2838527 0.3562291 0.32400888 0.28953007 0.25983277 0.18397962 0.3285696 0.3201308
0.30041242 0.2580401 0.32058337 0.40539 0.30194914 0.37016413 0.2528632 0.24190168
0.39298624 0.28909668 0.3273956 0.24350841 0.3595724 0.26713356 0.29658443 0.27844828
0.24874371 0.36462295 0.23766273 0.28736964 0.2679452 0.37521434 0.36212614 0.3337341

network.10.running_var f4 [32]
00000000: 6887 f63d 8a29 773e 1548 4d3e a78c 223e
00000010: c39d 543e db80 c13d 3cb0 683e 3c51 2a3e
00000020: 6732 b13e 5abe 9f3e 438e 803e d822 a43e
00000030: 7df1 693e 54e3 183f 4c2e 053e 8def f03d
00000040: 4c2c 073f d441 763e 0ddc c83e 389a 833e
00000050: 8ff5 003f 6a26 5c3e 56d5 353e 3678 393e
00000060: f6cc 243e 2bcc 5b3e f5ae 3c3e 02de 013e
00000070: af36 633e 735a c03e 7e7d 483e cc92 903e
0.120375454 0.2413694 0.20047028 0.15873967 0.20763306 0.09448405 0.22723478 0.16632551
0.34608766 0.31199914 0.25108537 0.32057834 0.22846027 0.59721875 0.13005942 0.11764441
0.52801967 0.24048549 0.39230385 0.25703597 0.5037469 0.21499029 0.17757162 0.18112263
0.16093811 0.21464603 0.18426116 0.12682346 0.22188829 0.37569007 0.19579121 0.28236997

network.12.weight f4 [1, 32]
00000000: 9ee9 833b ac20 8b3c bdbd a53c a522 f13c
00000010: 8c50 99bc f92c 1b3b 79ed f83b bff4 f0ba
00000020: f7d1 d4bc 663c 0b3d ff78 a63c fea0 cbbc
00000030: f833 ca3b bd89 a63c dd37 c2bc c177 07bc
00000040: 2721 9cbc 3bb6 15bd 8d56 c83c 6bc8 6f3c
00000050: cda8 bcbc d018 c2bb d535 e739 897c 5bbc
00000060: cb8f 913b 3c9f 053c d76c ed3b 0b72 e7bc
00000070: 6a44 4b3c 36fb 413c 9096 cdbc 95f4 6abc
0.004025652 0.016983353 0.020232076 0.029435465 -0.018715166 0.002367793 0.0075966683 -0.0018383487
-0.025979025 0.033993147 0.020321367 -0.02485704 0.006170746 0.02032935 -0.023708278 -0.008268298
-0.019058777 -0.03655074 0.024455333 0.014635186 -0.02302971 -0.005923368 0.0004409986 -0.013396391
0.0044421903 0.00815564 0.0072456407 -0.028252622 0.012406448 0.0118396785 -0.025096208 -0.014340539
